notebooks/edge_model.tflite (tflite, 495728 bytes, 16 tensors)

sequential/conv2d/BiasAdd/ReadVariableOp f4 [32]
0.017711094 0.002037265 0.004156682 0.005658528 0.022751821 0.027256183 0.040015914 0.02143032
-0.020915529 0.022285057 0.0033881254 0.028599832 -0.009362481 -0.017255554 0.023310738 0.036341377
0.07051488 -0.019670079 0.013276558 -0.00028107862 -0.04282702 0.0039820285 -0.01087559 -0.011585108
0.032148995 -0.024292493 -0.007839481 0.023927039 0.005106165 0.07144433 0.03416943 0.0005284858
00000000: db16 913c a383 053b c734 883b 2c6b b93b
00000010: 0762 ba3c 5c48 df3c bae7 233d a38e af3c
00000020: 0b57 abbc 278f b63c 500b 5e3b 324a ea3c
00000030: 1765 19bc 855b 8dbc 29f6 be3c b2da 143d
00000040: 1b6a 903d 2523 a1bc ec85 593c bc5d 93b9
00000050: 636b 2fbd ad7b 823b 882f 32bc 77cf 3dbc
00000060: aaae 033d 0d01 c7bc 2b71 00bc a302 c43c
00000070: 9e51 a73b 6851 923d 3ff5 0b3d 158a 0a3a

sequential/conv2d_1/BiasAdd/ReadVariableOp f4 [64]
-0.03973136 0.0217615 -0.027176436 0.0072826585 -0.08089821 -0.015299302 0.018113373 -0.061902065
-0.03369663 -0.0018470471 -0.0031978965 -0.036352616 0.010929441 -0.00989628 -0.06691389 0.02240609
-0.046993095 -0.025434816 -0.03968165 -0.00719757 -0.046876937 0.002726694 -0.0056302 -0.0035322774
-0.038556673 -0.016009344 -0.038525067 -0.008838237 -0.02668399 0.0027369312 -0.00858196 0.029275479
-0.020730438 0.005145718 0.0049875835 -0.057236105 -0.027501358 -0.061650597 -0.038493805 -0.002969312
-0.03540504 -0.037569426 -0.008605559 -0.004049217 -0.010611927 0.045534376 0.0356851 -0.023567842
-0.09066019 -0.047081992 0.006351666 -0.033997275 -0.029496463 -0.030330885 -0.01204042 -0.047599044
-0.039189 0.0005377736 0.0018949457 -0.027877279 0.033365995 -0.030159747 -0.038202822 -0.046562564
00000000: 5abd 22bd 2c45 b23c 1ea1 debc 5ea3 ee3b
00000010: f6ad a5bd eca9 7abc 7f62 943c 058d 7dbd
00000020: 7a05 0abd 9e18 f2ba cd93 51bb 7be6 14bd
00000030: 6611 333c 0224 22bc 260a 89bd fa8c b73c
00000040: d57b 40bd ad5c d0bc 3a89 22bd 98d9 ebbb
00000050: 0802 40bd 56b2 323b 8a7d b8bb c87d 67bb
00000060: 9aed 1dbd 0726 83bc 76cc 1dbd 41ce 10bc
00000070: 6298 dabc 165e 333b 599b 0cbc 21d3 ef3c
00000080: e1d2 a9bc 699d a83b e26e a33b 6870 6abd
00000090: 874a e1bc 5685 7cbd aeab 1dbd ca98 42bb
000000a0: e004 11bd 66e2 19bd 55fe 0cbc 4baf 84bb
000000b0: a6dd 2dbc 4182 3a3d 8a2a 123d 5911 c1bc
000000c0: 0dac b9bd 0cd9 40bd a321 d03b ba40 0bbd
000000d0: 91a2 f1bc 7a78 f8bc 2f45 45bc 37f7 42bd
000000e0: a584 20bd 60f9 0c3a d45f f83a e45e e4bc
000000f0: c8aa 083d 9311 f7bc 907a 1cbd 63b8 3ebd

sequential/conv2d_2/BiasAdd/ReadVariableOp f4 [64]
-0.017860264 -0.023415893 0.01579803 -0.0069135064 0.001100766 -0.030767424 -0.020440726 -0.0077082436
-0.012399543 -0.005019347 -0.008334765 -0.08400357 0.03419555 0.007083107 -0.012740349 -0.022173177
0.012691338 -0.026068063 -0.00597756 -0.035847887 -0.0070231846 0.013909044 0.027667422 0.03538617
-0.022744164 0.031331956 -0.0064527066 -0.01971067 0.016645437 -0.008111975 0.0056116283 -0.03408052
-0.036398634 0.01901103 -0.0065834243 0.009547285 -0.0015942119 -0.014789597 -0.0072521125 0.012649889
-0.020458719 -0.031941928 -0.016941437 -0.0074012885 -0.013723658 0.0038476125 0.031873778 -0.031157462
-0.012849708 -0.027443258 -0.01186813 0.04588634 0.038641788 -0.0070619048 -0.03957541 0.014470884
-0.015274326 0.03831921 -0.0008653351 0.0041046976 0.022608824 0.0070305946 -0.03877188 -0.009540389
00000000: b04f 92bc b0d2 bfbc df6a 813c b28a e2bb
00000010: 9447 903a f70b fcbc 4f73 a7bc 6f95 fcbb
00000020: 7427 4bbc 5679 a4bb 8a8e 08bc 100a acbd
00000030: a210 0c3d 6819 e83b e6bc 50bc 86a4 b5bc
00000040: 54ef 4f3c b18c d5bc 68df c3bb 3cd5 12bd
00000050: be22 e6bb c2e2 633c caa6 e23c 17f1 103d
00000060: f851 babc f055 003d 3a71 d3bb 4578 a1bc
00000070: 035c 883c 17e8 04bc c0e1 b73b 0498 0bbd
00000080: bc16 15bd 05bd 9b3c c4b9 d7bb 376c 1c3c
00000090: e0f4 d0ba 1150 72bc 21a3 edbb 7b41 4f3c
000000a0: 0b99 a7bc 8ad5 02bd c5c8 8abc 8286 f2bb
000000b0: 32d9 60bc 3a28 7c3b 148e 023d ef3d ffbc
000000c0: 9587 52bc afd0 e0bc 8c72 42bc 51f3 3b3d
000000d0: da46 1e3d 8d67 e7bb d319 22bd 4917 6d3c
000000e0: 2b41 7abc 9bf4 1c3d a8d7 62ba b380 863b
000000f0: 2436 b93c e760 e63b 43cf 1ebd 4b4f 1cbc

sequential/dense_1/MatMul;sequential/dense_1/BiasAdd f4 [3]
-0.8599811 -1.8052291 -0.49228358
00000000: b927 5cbf bf11 e7bf 980c fcbe

sequential/batch_normalization_3/batchnorm/mul_1;sequential/batch_normalization_3/batchnorm/add_1;sequential/dense_1/MatMul;sequential/dense_1/BiasAdd f4 [3, 64]
0.014738178 0.068491004 -0.13728829 0.07979319 -0.03205725 0.07749867 -0.1407072 -0.014279897
0.05711714 -0.034306202 0.040346365 -0.087983795 0.11425102 -0.086218 0.0525643 -0.034286395
-0.08654346 0.023258302 0.06412378 -0.027994635 0.02331808 0.031192292 -0.012378023 -0.045336615
0.07866949 -0.06151032 -0.01659127 0.15056732 -0.14810938 0.004341033 -0.041713394 0.045547154
-0.042586938 -0.002523631 0.009480618 0.078981526 0.054646462 0.08257272 0.026793312 0.03326901
0.0636289 0.15621999 0.034660704 0.084362596 -0.11657928 -0.09123798 -0.0721404 -0.111355744
0.046576157 -0.0990648 0.0246879 0.102283314 0.042469118 0.056055374 -0.073835865 -0.0216206
0.083119266 -0.023383614 0.10459128 0.004181302 0.107469365 -0.121268354 -0.08899486 0.08905663
0.17561023 0.01052496 -0.044357732 -0.030702155 -0.0035075229 0.040481266 0.11942069 0.106731504
-0.091105916 -0.087792955 0.112549104 0.1152979 0.05309855 0.007775169 -0.06349197 0.08285628
-0.13827705 0.06938023 -0.04898139 0.05239943 0.0036078966 0.24398457 0.10823365 0.06809628
0.103427306 0.04125943 0.055374224 -0.018384168 0.026552094 -0.040864874 0.039943866 -0.06958073
0.12838331 -0.056330062 0.11336316 -0.017158119 0.024930714 0.013502385 -0.011409753 -0.05113318
-0.071847394 0.048506204 -0.081570655 -0.032942567 0.027318621 0.08208415 -0.067102656 0.09517272
0.020940177 0.08591019 0.009861071 0.07202384 -0.11435647 0.061241087 0.023503508 -0.07066549
-0.10517086 0.0502831 0.07568666 0.054648906 0.10929599 -0.07193097 0.10101792 0.0879423
0.13753545 -0.08729318 -0.031149132 -0.055646084 -0.08334224 -0.06665833 0.12044203 -0.0031539802
-0.035779953 0.09309721 0.042839576 0.053962924 -0.00399632 -0.07050104 -0.08000349 0.088877775
-0.03445371 -0.12598392 0.033599764 -0.02050653 0.07324823 0.0961278 0.14628068 -0.116320305
-0.033612646 -0.07575075 -0.078576446 -0.074853085 -0.1113118 -0.09852843 0.011811288 0.06269113
0.010786494 -0.08876597 0.14817883 -0.0137630645 -0.07734356 0.12179239 -0.082117416 0.0867537
0.01861754 -0.05990321 0.07547376 -0.078001864 0.10686496 -0.04353282 0.014472141 0.0793859
0.14234589 0.112361014 0.12195941 -0.06644374 -0.012168906 -0.06650877 0.074048474 0.05977961
-0.022595627 0.13044174 0.020308588 -0.079076566 0.0037825273 0.07883893 -0.07279324 -0.0036066305
00000000: 6678 713c 0345 8c3d 4d95 0cbe 9d6a a33d
00000010: 774e 03bd 9fb7 9e3d 8c15 10be 3bf6 69bc
00000020: aaf3 693d a984 0cbd 3b42 253d d930 b4bd
00000030: 70fc e93d 1093 b0bd aa4d 573d e46f 0cbd
00000040: b33d b1bd 3288 be3c 5453 833d 0155 e5bc
00000050: 8f05 bf3c fa86 ff3c 31cd 4abc e3b2 39bd
00000060: 781d a13d 3ff2 7bbd 6aea 87bc 522e 1a3e
00000070: fca9 17be 393f 8e3b aadb 2abd a78f 3a3d
00000080: a46f 2ebd 8163 25bb 9854 1b3c 11c1 a13d
00000090: f8d4 5f3d e31b a93d a67d db3c 1645 083d
000000a0: de4f 823d 22f8 1f3e 62f8 0d3d 4cc6 ac3d
000000b0: 1ec1 eebd fada babd 59be 93bd 7b0e e4bd
000000c0: a4c6 3e3d 7ce2 cabd 473e ca3c ea79 d13d
000000d0: 19f4 2d3d 529a 653d 4237 97bd af1d b1bc
000000e0: 6f3a aa3d fe8e bfbc f433 d63d 4e03 893b
000000f0: e618 dc3d 8b5b f8bd f042 b6bd 5363 b63d
00000100: 2bd3 333e e270 2c3c 74b0 35bd 1683 fbbc
00000110: 78de 65bb afcf 253d d692 f43d 0c96 da3d
00000120: bd95 babd cbcc b3bd 2580 e63d 4e21 ec3d
00000130: dd7d 593d d8c6 fe3b 1408 82bd 8eb0 a93d
00000140: 8098 0dbe 3917 8e3d b6a0 48bd c9a0 563d
00000150: 7672 6c3b 17d7 793e 9ba9 dd3d 1076 8b3d
00000160: b2d1 d33d a6ff 283d 15d0 623d 659a 96bc
00000170: c783 d93c ed61 27bd 2e9c 233d 5780 8ebd
00000180: ea76 033e 5aba 66bd f22a e83d 2f8f 8cbc
00000190: 7f3b cc3c 1b39 5d3c f9ef 3abc 0671 51bd
000001a0: ba24 93bd 71ae 463d 840e a7bd c9ee 06bd
000001b0: 4dcb df3c bc1b a83d 1e6d 89bd eae9 c23d
000001c0: bc8a ab3c aff1 af3d 5490 213c 3c81 933d
000001d0: ba33 eabd efd7 7a3d 6e8a c03c 12b9 90bd
000001e0: d263 d7bd a7f5 4d3d 9c01 9b3d 88d7 5f3d
000001f0: 93d6 df3d 8b50 93bd 7ce2 ce3d 181b b43d
00000200: 18d6 0c3e c4c6 b2bd 772c ffbc 26ed 63bd
00000210: 56af aabd 2a84 88bd 50aa f63d 02b3 4ebb
00000220: 008e 12bd c0a9 be3d 8d78 2f3d 3a08 5d3d
00000230: 90f3 82bb d962 90bd dfd8 a3bd 8d05 b63d
00000240: 551f 0dbd ee01 01be e89f 093d 4ffd a7bc
00000250: 2b03 963d a7de c43d 9aca 153e 5739 eebd
00000260: 6aad 09bd 3623 9bbd b0ec a0bd 934c 99bd
00000270: 71f7 e3bd 46c9 c9bd 2284 413c 3564 803d
00000280: d6b9 303c efca b5bd 31bc 173e 7a7e 61bc
00000290: 4d66 9ebd 4a6e f93d 2d2d a8bd edab b13d
000002a0: d083 983c 115d 75bd fd91 9a3d 71bf 9fbd
000002b0: 04dc da3d 784f 32bd 8f1c 6d3c 1395 a23d
000002c0: 1fc3 113e 881d e63d dbc5 f93d a813 88bd
000002d0: 1760 47bc c035 88bd baa6 973d 77db 743d
000002e0: 771a b9bc 8592 053e 325e a63c e5f2 a1bd
000002f0: 47e4 773b 4e76 a13d 9f14 95bd 385d 6cbb

sequential/conv2d/Conv2D f4 [32, 3, 3, 3]
0.11021953 -0.008395441 0.10772479 0.03134946 0.060159598 -0.073445275 -0.0010576125 -0.021263678
-0.07807367 -0.09956655 -0.013891264 -0.08585623 -0.0025946696 -0.059459955 -0.015737543 0.13441752
0.09736424 -0.015030128 0.081024796 0.050606336 -0.089576006 -0.014749879 -0.037804 0.042992756
0.05605308 -0.08465757 -0.095972285 0.03202421 0.061098438 0.018369904 -0.081862055 0.14223489
-0.04890701 0.12015049 0.04583023 0.042418096 -0.119782016 0.0076066153 0.06251088 0.077778526
0.111144744 0.04649892 0.0048823766 -0.012603373 -0.08384026 0.004123951 0.073508196 0.08361421
0.124170296 -0.111702554 0.062777735 0.067309745 0.1177749 0.102626644 -0.012054075 0.050202698
0.017428689 0.080240294 0.11476809 0.14061448 0.08611069 0.008591585 0.08629591 -0.1349353
0.097036764 -0.07891092 -0.06502303 -0.11004416 -0.11971143 -0.099710755 0.02686674 0.12862027
-0.01265488 -0.14979215 -0.046219572 0.006915856 0.014567873 -0.050058015 -0.07578705 -0.13941869
0.09782088 0.116646715 0.09863659 -0.040377352 -0.086151354 -0.11264957 -0.075193845 -0.05611365
-0.10637773 -0.1603026 0.0005026341 -0.10265697 0.0441192 -0.100518905 0.008907652 0.07010948
-0.008335868 -0.05536821 -0.09985388 -0.059351772 0.074725024 0.013403509 -0.05890727 -0.01876545
-0.14048883 -0.11630487 -0.06331223 0.033353288 0.08323939 0.04360064 0.030399298 0.09273607
0.13783589 0.1114709 -0.07898618 0.058770575 0.006982003 0.023192652 -0.073261485 0.030311385
0.046288837 0.08091558 -0.078009315 -0.015426113 -0.11095546 -0.041596256 -0.051973384 -0.076827206
-0.039623428 -0.1575768 -0.14763057 -0.06724255 -0.12509471 0.11432621 -0.034374792 -0.013473091
-0.08958958 -0.09252246 0.028454704 0.12257979 -0.04638195 0.104429446 0.07157948 -0.03427424
0.06415734 0.123003595 -0.100791976 0.09422413 0.012946574 0.11302865 -0.13987635 -0.12687516
-0.11372887 -0.09940693 0.106573105 0.13876389 -0.05403644 0.04651402 -0.06458597 0.12620065
-0.09990126 -0.06786652 -0.05390928 0.039903842 -0.052718982 0.03540697 0.04251551 -0.12201732
-0.068674296 -0.14187506 -0.01282467 -0.06442269 0.04039148 -0.038595397 0.07469877 -0.058449455
0.11518001 -0.0003195033 -0.08603928 0.08579785 0.06357631 0.06173803 -0.082767166 -0.08679934
-0.12808584 0.054504648 0.16111743 -0.034035217 0.16008162 0.09205821 0.05354237 -0.06062128
0.033665527 -0.15058391 -0.16291572 0.030146334 0.10674331 -0.07101193 0.11417392 0.08328982
-0.116349764 -0.1461286 -0.1503371 0.019540105 -0.040044904 -0.050260678 0.020580007 -0.030682331
-0.054613274 -0.11701729 -0.0963967 -0.103382945 0.006245231 -0.005530061 0.122825846 0.09432231
-0.071726054 0.106658444 -0.023036208 -0.13512905 0.012638442 -0.11697736 0.110428095 0.061078917
0.08610569 -0.021854104 0.04699253 0.037802037 0.13246895 0.043512333 -0.11002992 0.047281325
0.11094113 -0.08734147 0.10228251 -0.105731905 0.026628656 0.00090023305 -0.035492416 0.14947489
-0.02940841 0.16997781 0.1492582 -0.14145397 0.10591521 -0.122107916 -0.050731402 0.023523357
0.12770352 -0.019265044 0.04739581 0.10232776 -0.022065537 0.14513007 0.02244605 -0.04126706
00000000: c7ba e13d 088d 09bc d19e dc3d 4b68 003d
00000010: e969 763d 7a6a 96bd 969f 8aba 2a31 aebc
00000020: 17e5 9fbd 8ce9 cbbd 2f98 63bc 64d5 afbd
00000030: 550b 2abb 488c 73bd 05ec 80bc bfa4 093e
00000040: e766 c73d ed40 76bc 54f0 a53d 9748 4f3d
00000050: a073 b7bd 7aa9 71bc 5ed8 1abd 2c19 303d
00000060: ea97 653d f360 adbd 1e8d c4bd d12b 033d
00000070: 5b42 7a3d 7b7c 963c 4ba7 a7bd 06a6 113e
00000080: b852 48bd 7611 f63d 7bb8 3b3d 99be 2d3d
00000090: 4650 f5bd ea40 f93b b405 803d 594a 9f3d
000000a0: db9f e33d a775 3e3d 58fc 9f3b 617e 4ebc
000000b0: 71b4 abbd 3522 873b 778b 963d ed3d ab3d
000000c0: ff4c fe3d 4fc4 e4bd 9d91 803d b1d9 893d
000000d0: f733 f13d eb2d d23d 747e 45bc 58a1 4d3d
000000e0: 9cc6 8e3c 0655 a43d 880b eb3d 3efd 0f3e
000000f0: cd5a b03d b8c3 0c3c e9bb b03d 7b2c 0abe
00000100: 36bb c63d 0c9c a1bd cb2a 85bd d55e e1bd
00000110: 442b f5bd 2735 ccbd a317 dc3c 08b5 033e
00000120: 6a56 4fbc 1d63 19be bc50 3dbd 689e e23b
00000130: 17ae 6e3c a209 4dbd 3e36 9bbd c6c3 0ebe
00000140: 5056 c83d 79e4 ee3d fb01 ca3d b962 25bd
00000150: 1f70 b0bd d1b4 e6bd 3bff 99bd 6dd7 65bd
00000160: 91dc d9bd 5d26 24be 34c3 033a d13d d2bd
00000170: 56b6 343d dbdc cdbd 67f1 113c 8f95 8f3d
00000180: 2a93 08bc c7c9 62bd 3180 ccbd d81a 73bd
00000190: 6f09 993d 649a 5b3c c048 71bd 00ba 99bc
000001a0: 4edc 0fbe 3f31 eebd d8a9 81bd 759d 083d
000001b0: 6a79 aa3d 9696 323d f307 f93c 69ec bd3d
000001c0: da24 0d3e db4a e43d 82c3 a1bd 6ab9 703d
000001d0: 49c9 e43b 84fe bd3c 1e0a 96bd 954f f83c
000001e0: 5d99 3d3d 11b7 a53d 59c3 9fbd cfbd 7cbc
000001f0: 9e3c e3bd d660 2abd 0be2 54bd 9557 9dbd
00000200: 2d4c 22bd d05b 21be 782c 17be 76b6 89bd
00000210: d418 00be dc23 ea3d 95cc 0cbd 3dbe 5cbc
00000220: be7a b7bd 6a7c bdbd d719 e93c 1d0b fb3d
00000230: 00fb 3dbd 1bdf d53d 4398 923d 2563 0cbd
00000240: ec64 833d 4fe9 fb3d 066c cebd 95f8 c03d
00000250: de1d 543c 917b e73d bf3b 0fbe 90eb 01be
00000260: afea e8bd dc95 cbbd 0043 da3d 1f18 0e3e
00000270: 5055 5dbd 7c85 3e3d a645 84bd be3a 013e
00000280: 0899 ccbd 9afd 8abd facf 5cbd 3672 233d
00000290: dcef 57bd e606 113d be24 2e3d 37e4 f9bd
000002a0: 1ca5 8cbd b247 11be 911e 52bc 0bf0 83bd
000002b0: 8971 253d 3516 1ebd abfb 983d b268 6fbd
000002c0: 7fe3 eb3d 0283 a7b9 5d35 b0bd c8b6 af3d
000002d0: 4c34 823d 04e1 7c3d d581 a9bd dac3 b1bd
000002e0: ef28 03be 4440 5f3d f8fb 243e 8368 0bbd
000002f0: 70ec 233e 0489 bc3d 3f4f 5b3d 054e 78bd
00000300: dde4 093d ab32 1abe 61d3 26be 72f5 f63c
00000310: 3d9c da3d b46e 91bd 04d4 e93d da93 aa3d
00000320: c948 eebd bca2 15be f8f1 19be 9212 a03c
00000330: 2006 24bd 24de 4dbd 6797 a83c 8359 fbbc
00000340: 2bb2 5fbd c3a6 efbd a26b c5bd 70ba d3bd
00000350: cba4 cc3b 8435 b5bb 1e8c fb3d 0e2c c13d
00000360: 1ce5 92bd be6f da3d 6eb6 bcbc 455f 0abe
00000370: 7811 4f3c d391 efbd 2028 e23d e32d 7a3d
00000380: 2e58 b03d 6107 b3bc 3d7b 403d 4fd6 1a3d
00000390: f1a5 073e fd39 323d 5e57 e1bd 10aa 413d
000003a0: 1a35 e33d 16e0 b2bd 7e79 d13d f889 d8bd
000003b0: 5724 da3c 9efd 6b3a 7f60 11bd f20f 193e
000003c0: e8e9 f0bc aa0e 2e3e 24d7 183e 4fd9 10be
000003d0: 13ea d83d b713 fabd bbcb 4fbd 0eb4 c03c
000003e0: b6c4 023e bad1 9dbc 1c22 423d 3791 d13d
000003f0: c9c2 b4bc fa9c 143e c7e0 b73c a607 29bd

sequential/conv2d_1/Conv2D f4 [64, 3, 3, 32]
-0.007757606 -0.0048997574 -0.021012273 0.05371863 -0.043701127 -0.0006303261 0.013642385 -0.028166903
0.049690254 -0.014386492 0.0060711936 -0.00895483 0.060922872 0.048435487 -0.032979503 -0.04825778
-0.07389846 -0.113268934 -0.02071758 0.036083102 0.05032089 -0.009509947 0.006557149 -0.10084764
-0.08640787 -0.02104435 0.010812434 -0.0162523 0.046620794 -0.101854116 0.018931296 -0.026672669
-0.017649524 0.059763353 -0.06924404 -0.0618607 -0.07308955 -0.001965885 -0.04281302 -0.08257572
-0.014215227 -0.07645181 0.02757202 0.02176911 0.032116048 -0.03546377 -0.07180441 0.021576863
-0.029512143 0.0013524991 0.0038281092 -0.011206368 0.0067861234 -0.04760402 0.03933062 0.066546224
0.026972974 0.029420124 0.08100392 0.006765766 -0.051838666 0.047906723 0.022062536 0.062018145
-0.07696124 -0.026037231 0.05247743 0.052534312 -0.037185986 0.02084155 0.01754902 -0.047243655
0.01819684 -0.025996393 -0.024540743 -0.0015420439 -0.034048866 -0.033003844 -0.08734044 0.07074347
-0.10546889 -0.045824748 -0.036514714 -0.05912105 0.018471502 0.07577728 -0.087305404 0.023838563
-0.09054142 -0.0700939 -0.025899136 0.011559382 -0.028753059 -0.085279964 -0.0639727 0.019617075
-0.04763108 0.02670288 -0.0033713302 0.048552364 -0.04248009 0.025863947 0.0071955887 -0.05144138
0.009252839 -0.0554375 -0.07972295 0.0012176243 0.07269483 -0.08782697 0.07086458 0.036390778
-0.034648567 -0.08764133 0.017046038 -0.0647929 -0.035809 -0.04553104 -0.05113228 0.032973714
-0.006560038 -0.041753013 0.08784398 0.008786466 0.02894136 -0.03690219 -0.048855454 -0.075947285
0.05551816 -0.060255524 -0.018753134 -0.009030132 -0.037731458 0.028182121 -0.008368083 -0.0091993315
0.08084817 -0.029575057 -0.074013874 -0.006447267 0.10386228 -0.008389572 0.04924502 0.026368871
-0.054663863 -0.038847435 -0.045937605 -2.08649e-05 -0.0333522 0.044617098 0.0062228595 0.00972732
0.012385245 0.02384142 0.07058526 -0.04706139 -0.032327477 -0.0010585202 0.021070136 0.060678266
0.01606421 0.015120909 -0.032026578 -0.08622214 -0.030565029 -0.10202912 -0.098284654 -0.03318712
-0.019972948 7.250903e-05 -0.07575269 -0.062170934 0.046953633 -0.06934671 -0.07944347 -0.053682595
0.013182798 -0.013523654 -0.032574877 -0.011978123 -0.023383493 -0.11236099 0.03870993 -0.014491964
-0.07254973 -0.055076037 0.026044201 -0.0951681 0.03636682 0.009701111 -0.102188535 0.074977
-0.089242205 -0.016458573 -0.034282997 -0.106172204 -0.016753685 -0.014570307 -0.03897035 0.0124360835
-0.05161852 -0.05708867 -0.1167113 0.04896823 0.0645661 0.028329154 -0.12502709 0.0824886
0.012075243 0.0649732 0.025868608 -0.01909798 0.056404248 -0.025424633 0.048028477 0.0016192149
-0.05654752 0.06744663 -0.042945944 0.026330885 0.057105035 0.012509035 0.04583315 -0.04170704
0.059429687 0.0944899 -0.012812164 0.029167255 -0.05725248 -0.059149433 0.030684048 0.07271036
0.011868039 -0.010233112 -0.015930193 -0.107784934 0.047469635 0.037401702 -0.010672827 -0.030720662
0.051281154 -0.059036344 0.039795082 -0.07288937 -0.072063416 -0.05284794 -0.107794285 -0.022089083
0.031531233 0.09492123 0.015559226 -0.06512548 0.050384853 0.0023612329 -0.030990187 0.025858734
00000000: 8433 febb 258e a0bb ee21 acbc 1108 5c3d
00000010: f4ff 32bd 783c 25ba 4f84 5f3c 47be e6bc
00000020: 0288 4b3d 52b5 6bbc ddf0 c63b 47b7 12bc
00000030: 438a 793d 4a64 463d 8415 07bd f3a9 45bd
00000040: 1358 97bd 8bf9 e7bd eab7 a9bc e0cb 133d
00000050: 471d 4e3d 9ccf 1bbc 5add d63b 3589 cebd
00000060: 9cf6 b0bd 3365 acbc a326 313c 8b23 85bc
00000070: 72f5 3e3d e498 d0bd ce15 9b3c a480 dabc
00000080: bc95 90bc 6bca 743d d2cf 8dbd a561 7dbd
00000090: f9af 95bd 14d6 00bb b55c 2fbd 761d a9bd
000000a0: fce6 68bc c492 9cbd b8de e13c 2255 b23c
000000b0: 1e8c 033d 7542 11bd 310e 93bd f6c1 b03c
000000c0: 73c3 f1bc 5746 b13a 04e1 7a3b ea9a 37bc
000000d0: 215e de3b 6ffc 42bd 2519 213d 6349 883d
000000e0: 6df6 dc3c 7902 f13c 62e5 a53d 5cb3 dd3b
000000f0: c854 54bd d739 443d 7ebc b43c bd06 7e3d
00000100: db9d 9dbd 084c d5bc 93f2 563d 382e 573d
00000110: 5550 18bd e6bb aa3c f6c2 8f3c 9082 41bd
00000120: 8a11 953c 63f6 d4bc ab09 c9bc 681e caba
00000130: d376 0bbd 0a2f 07bd 8bdf b2bd f4e1 903d
00000140: 1300 d8bd bbb2 3bbd 7490 15bd ea28 72bd
00000150: 8c51 973c 1e31 9b3d 2dcd b2bd 1749 c33c
00000160: c86d b9bd 648d 8fbd 6d2a d4bc 9063 3d3c
00000170: 898b ebbc 43a7 aebd 1e04 83bd fdb3 a03c
00000180: cf18 43bd 00c0 da3c 89f1 5cbb d8de 463d
00000190: 9aff 2dbd a1e0 d33c f9c8 eb3b 32b4 52bd
000001a0: 3899 173c 6f12 63bd c945 a3bd b198 9f3a
000001b0: 07e1 943d a0de b3bd 7321 913d 7f0e 153d
000001c0: a8eb 0dbd 4c7d b3bd 22a4 8b3c 24b2 84bd
000001d0: 75ac 12bd c17e 3abd 1570 51bd 720f 073d
000001e0: 96f5 d6bb 3505 2bbd 8be7 b33d 1cf5 0f3c
000001f0: 6e16 ed3c c026 17bd a81c 48bd 408a 9bbd
00000200: 0367 633d 7fce 76bd 2ca0 99bc 1ef3 13bc
00000210: 4d8c 1abd 31de e63c 491a 09bc cbb8 16bc
00000220: ba93 a53d 6447 f2bc 9694 97bd 9843 d3bb
00000230: bfb5 d43d 6a74 09bc 25b5 493d 8803 d83c
00000240: 37e7 5fbd 7d1e 1fbd 1229 3cbd 0807 afb7
00000250: 519c 08bd 6bc0 363d 21e9 cb3b 565f 1f3c
00000260: 7ceb 4a3c 154f c33c 018f 903d 72c3 40bd
00000270: d169 04bd 0bbe 8aba 479b ac3c c689 783d
00000280: 1799 833c b0bd 773c 4d2e 03bd 3c95 b0bd
00000290: 8363 fabc a5f4 d0bd 7749 c9bd 38ef 07bd
000002a0: 4f9e a3bc fd0f 9838 3a24 9bbd f3a6 7ebd
000002b0: 7452 403d a605 8ebd 42b3 a2bd 48e2 5bbd
000002c0: aafc 573c 5192 5dbc 3c6d 05bd e43f 44bc
000002d0: bd8e bfbc 851d e6bd 4e8e 1e3d b46f 6dbc
000002e0: f494 94bd 6997 61bd a65a d53c 7ee7 c2bd
000002f0: 60f5 143d 69f1 1e3c 3948 d1bd 8b8d 993d
00000300: 9ec4 b6bd 21d4 86bc 546c 0cbd d070 d9bd
00000310: 063f 89bc 4cb8 6ebc 609f 1fbd b7c0 4b3c
00000320: f16d 53bd cfd5 69bd 5606 efbd e992 483d
00000330: 3b3b 843d 8b12 e83c 1a07 00be c8ef a83d
00000340: 3dd7 453c ab10 853d 67ea d33c 5e73 9cbc
00000350: 2408 673d 5247 d0bc 82b9 443d d63b d43a
00000360: 5f9e 67bd 7521 8a3d 16e8 2fbd deb3 d73c
00000370: f8e6 693d b2f2 4c3c 8bbb 3b3d 00d5 2abd
00000380: 8b6c 733d ec83 c13d 1cea 51bc 2bf0 ee3c
00000390: 9481 6abd ad46 72bd 1d5d fb3c 2be9 943d
000003a0: 2a72 423c c8a8 27bc 0980 82bc 59be dcbd
000003b0: 856f 423d 8732 193d 15dd 2ebc e6a9 fbbc
000003c0: 300c 523d 18d0 71bd 2b00 233d 0647 95bd
000003d0: fc95 93bd 1577 58bd 40c3 dcbd 2af4 b4bc
000003e0: e526 013d 1066 c23d 20ec 7e3c 8260 85bd
000003f0: 5960 4e3d eabe 1a3b 22df fdbc b2d5 d33c

sequential/conv2d_2/Conv2D f4 [64, 3, 3, 64]
0.001960624 0.008759671 0.05611398 -0.016185826 0.066040695 0.042670593 0.085631 0.0034900042
-0.05538409 0.022008425 0.05394881 0.020686341 0.011610043 -0.033505186 -0.010965166 -0.0316786
0.06253118 -0.040098563 0.073687665 0.040185895 -0.051314432 -0.06435374 -0.014033982 0.062215343
-0.02449541 0.035929665 0.033566147 -0.0680175 0.051575985 0.02724948 -0.0071235276 -0.033858746
0.04193695 -0.08729346 0.05977148 -0.003968304 -0.014771137 -0.08526199 -0.038324695 0.07017881
-0.058330998 0.02783423 0.02192181 -0.023350824 -0.007944607 -0.041304745 0.06361345 0.07637903
-0.032772116 -0.014044615 -0.04035216 0.034061123 -0.060901176 0.015491616 0.022361036 -0.062286086
-0.07014242 0.03315517 0.028612908 -0.038517557 -0.044938337 -0.061494008 -0.012539098 0.08280722
-0.0013892816 0.08845844 -0.034248397 -0.01681237 -0.0052360296 0.06060025 -0.05742148 -0.0017317404
-0.025730718 -0.028330855 -0.07667852 -0.003794954 -0.04897998 0.03980551 -0.07073687 -0.03420857
0.052579038 -0.068802565 -0.0682754 -0.06919746 -0.042803172 0.022485139 0.068131 -0.06376825
-0.028978666 0.051318176 0.04710712 -0.06102359 -0.021610029 0.026578149 0.03158079 0.01711282
0.012794989 -0.014369349 0.008752821 0.06047037 -0.0012996895 -0.05219512 0.048567954 -0.019196806
-0.033178154 0.013087334 0.068157 0.079582796 -0.039571878 -0.0021550981 -0.03986863 0.060243495
0.023338715 -0.010472245 0.044436935 -0.09272888 -0.06813211 0.042865336 0.0548093 0.02068441
-0.029696925 -0.018751042 0.054895565 0.025114372 -0.04208588 -0.0047413716 -0.025360415 -0.009599195
0.008827402 0.054826286 -0.0687791 -0.0703059 -0.042867586 -0.0039418177 0.054765236 -0.008386058
0.02976381 0.048712272 -0.070535816 0.058997706 0.057497628 -0.0013959708 0.05816918 0.025503693
0.028777523 0.054453485 0.037601933 0.040072642 -0.00033686892 0.022213621 -0.034414154 0.028706146
-0.005127769 -0.040441677 0.042737678 -0.04880587 0.027606335 -0.028723253 -0.033995923 0.018065492
-0.07718931 0.02282069 0.048926175 0.028889153 0.0146005815 -0.06317872 -0.0488426 0.0034574182
0.005519755 -0.006797073 0.03415692 0.041351818 -0.034991637 0.045313317 -0.051036812 -0.05332782
0.010920137 0.023972787 -0.014969459 -0.07387872 -0.05019281 -0.018808734 -0.008789239 -0.014229239
0.03183756 0.056517594 -0.009243726 0.0032953229 -0.09008698 0.03747509 0.03247447 0.055171404
0.070652656 0.056348372 -0.032109614 0.07013138 0.041957762 -0.0044783573 0.0095955115 0.06548704
-0.065937445 0.08443236 0.051900517 -0.011434843 -0.012172484 -0.026503498 -0.07969964 0.07646053
-0.028053036 -0.0138852205 0.05239301 -0.05222948 -0.0047573224 0.011756079 -0.06085994 0.055285696
0.03057585 -0.077889204 -0.04397674 0.052373473 -0.002227986 0.017544568 0.03513031 -0.024111535
-0.005971652 -0.036717623 0.04295919 0.012444335 -0.009522422 -0.074415214 0.054367278 0.029859897
-0.0043863794 0.055272218 -0.0748075 -0.0101292515 -0.010807194 0.009084655 -0.0141884545 -0.029671982
-0.07386109 0.052785408 -0.044031605 -0.037316076 0.06327097 -0.037556775 -0.0048918366 0.010552198
-0.0037304517 -0.06572065 0.007575833 -0.025089389 0.0330117 -0.06320639 -0.0073507186 0.08799742
00000000: d07d 003b b984 0f3c c6d7 653d 2398 84bc
00000010: 5840 873d 5cc7 2e3d 4e5f af3d 8eb8 643b
00000020: 6dda 62bd 034b b43c 6df9 5c3d 6776 a93c
00000030: 0d38 3e3c bc3c 09bd 3da7 33bc 6bc1 01bd
00000040: 5910 803d 643e 24bd 8fe9 963d f799 243d
00000050: 152f 52bd e5cb 83bd c9ee 65bc 84d5 7e3d
00000060: 99aa c8bc fc2a 133d a87c 093d c24c 8bbd
00000070: 5741 533d 4d3a df3c 7b6c e9bb 78af 0abd
00000080: 14c6 2b3d eac6 b2bd f0d2 743d 8c08 82bb
00000090: a402 72bc d79d aebd 5bfa 1cbd e8b9 8f3d
000000a0: 7cec 6ebd 9c04 e43c 5e95 b33c 3a4a bfbc
000000b0: 192a 02bc 2a2f 29bd c547 823d 9c6c 9c3d
000000c0: 0e3c 06bd 631b 66bc 4e48 25bd ad83 0b3d
000000d0: 8373 79bd 8cd0 7d3c 7e2e b73c b21f 7fbd
000000e0: d4a6 8fbd b7cd 073d 9e65 ea3c 96c4 1dbd
000000f0: 4311 38bd 24e1 7bbd ca70 4dbc d596 a93d
00000100: 8e18 b6ba b329 b53d 0c48 0cbd 18ba 89bc
00000110: 0093 abbb f837 783d c932 6bbd 91fb e2ba
00000120: 3ac9 d2bc 1c16 e8bc a109 9dbd c3b4 78bb
00000130: 3b9f 48bd 1a0b 233d 7ede 90bd 491e 0cbd
00000140: 1e5d 573d 5ce8 8cbd f9d3 8bbd 66b7 8dbd
00000150: 6152 2fbd c132 b83c 4488 8b3d ee98 82bd
00000160: ab64 edbc 0233 523d 65f3 403d dff3 79bd
00000170: 8407 b1bc 6bba d93c dc5a 013d 2f30 8c3c
00000180: 13a2 513c 6b6d 6bbc fe67 0f3c c7af 773d
00000190: 585a aaba 8dca 55bd 31ef 463d 9f42 9dbc
000001a0: d1e5 07bd 426c 563c e695 8b3d 4efc a23d
000001b0: 1f16 22bd 8c3c 0dbb 4a4d 23bd e2c1 763d
000001c0: d530 bf3c c793 2bbc 8103 363d a4e8 bdbd
000001d0: d988 8bbd 9093 2f3d b77f 603d 5a72 a93c
000001e0: f746 f3bc c99b 99bc 2cda 603d a8bc cd3c
000001f0: 3e62 2cbd 825d 9bbb a5c0 cfbc f145 1dbc
00000200: cfa0 103c 8791 603d 0fdc 8cbd 8afc 8fbd
00000210: ec95 2fbd 5d2a 81bb 8351 603d ad65 09bc
00000220: 3cd3 f33c 8586 473d 1575 90bd 94a7 713d
00000230: a282 6b3d 02f9 b6ba ce42 6e3d 1fed d03c
00000240: d7be eb3c 9e0a 5f3d 7c04 1a3d 3623 243d
00000250: c89d b0b9 57f9 b53c dbf5 0cbd 2729 eb3c
00000260: d806 a8bb 2ca6 25bd b40d 2f3d aae8 47bd
00000270: ae26 e23c 074d ebbc 4f3f 0bbd 15fe 933c
00000280: 6e15 9ebd 75f2 ba3c d066 483d f2a8 ec3c
00000290: 4737 6f3c d863 81bd 2e0f 48bd da95 623b
000002a0: 10df b43b fbb9 debb 20e8 0b3d 8660 293d
000002b0: 6453 0fbd 759a 393d fa0b 51bd 466e 5abd
000002c0: 60ea 323c 9462 c43c 7642 75bc ba4d 97bd
000002d0: fa96 4dbd c614 9abc be00 10bc c121 69bc
000002e0: 1a68 023d fe7e 673d ff72 17bc 58f6 573b
000002f0: 867f b8bd 7b7f 193d f303 053d 69fb 613d
00000300: 57b2 903d 8dcd 663d 5f85 03bd 0aa1 8f3d
00000310: e7db 2b3d 2fbf 92bb 7e36 1d3c 121e 863d
00000320: 360a 87bd e0ea ac3d a395 543d 3559 3bbc
00000330: 196f 47bc dd1d d9bc 9139 a3bd 5797 9c3d
00000340: 7bcf e5bc d67e 63bc 0e9a 563d 94ee 55bd
00000350: 50e3 9bbb 929c 403c 4648 79bd 4173 623d
00000360: 347a fa3c 6084 9fbd f420 34bd 9185 563d
00000370: 6703 12bb a0b9 8f3c cde4 0f3d 8e85 c5bc
00000380: d9ad c3bb 3865 16bd faf5 2f3d 53e3 4b3c
00000390: ef03 1cbc 0167 98bd 39b0 5e3d be9c f43c
000003a0: 9ebb 8fbb 1f65 623d ad34 99bd 29f5 25bc
000003b0: a810 31bc ced7 143c b176 68bc a812 f3bc
000003c0: 7c44 97bd 8335 583d 7c5a 34bd bed8 18bd
000003d0: 3694 813d 22d5 19bd b34b a0bb 20e3 2c3c
000003e0: 987a 74bb 8c98 86bd b13e f83b 4388 cdbc
000003f0: 4737 073d 5a72 81bd 4cde f0bb fe37 b43d

sequential/dense/BiasAdd/ReadVariableOp f4 [64]
0.005865756 -0.031357087 -0.012440201 0.03299215 0.051946368 0.056314074 -0.0018403004 0.029367767
-0.038976144 -0.0021224527 -0.0082375035 0.028126078 0.007134636 0.032995824 -0.03209988 0.01757152
0.0136911115 0.0034794204 0.032429438 0.011727892 -0.03818683 -0.023838868 0.007249775 0.008856531
0.029358437 0.04826392 0.05928563 -0.028575659 0.0029096492 0.0065184715 0.0077611855 0.0030768989
-0.02435402 -0.008658983 0.027272567 0.0404716 -0.004591293 0.032696 0.028334834 0.03160916
0.04514921 -0.012334346 0.051816694 -0.05301888 0.015078041 0.026352756 0.0035197376 0.01740682
0.0027546247 0.019544434 0.0039884243 0.013092292 -0.03543025 0.0067694597 -0.012569384 0.013516444
-0.033186875 -0.033537462 0.040283676 0.045692958 0.0056645507 -0.029530555 0.032900054 0.015344474
00000000: 8735 c03b 4a70 00bd fcd1 4bbc c722 073d
00000010: b7c5 543d 96a9 663d 3c36 f1ba ac94 f03c
00000020: 73a5 1fbd d918 0bbb 98f6 06bc a968 e63c
00000030: aac9 e93b a126 073d 2a7b 03bd 26f2 8f3c
00000040: af50 603c fd06 643b bbd4 043d 5826 403c
00000050: cb69 1cbd bb49 c3bc 858f ed3b fc1a 113c
00000060: 1b81 f03c 63b0 453d 7dd5 723d 8017 eabc
00000070: d0af 3e3b e798 d53b 8b51 fe3b cca5 493b
00000080: 1582 c7bc 68de 0dbc b86a df3c 8cc5 253d
00000090: 8f72 96bb 3eec 053d 741e e83c 9b78 013d
000000a0: 61ee 383d ff15 4abc be3d 543d 532a 59bd
000000b0: e309 773c bce1 d73c 66ab 663b bf98 8e3c
000000c0: ef86 343b a61b a03c 54b1 823b 0d81 563c
000000d0: 4f1f 11bd 58d2 dd3b d1ef 4dbc 1374 5d3c
000000e0: f6ee 07bd 945e 09bd 7f00 253d 8a28 3b3d
000000f0: b29d b93b 10ea f1bc 35c2 063d 6467 7b3c

sequential/batch_normalization/FusedBatchNormV3 f4 [32]
24.395618 3.9069352 17.201017 28.760675 12.945243 17.688332 18.305069 27.61793
5.337957 21.164225 30.03777 15.496469 29.241806 19.011362 22.577396 4.551647
6.4726644 18.685984 6.0899854 26.16493 6.6300993 30.447699 29.87474 7.651289
6.831578 11.186152 31.610931 3.7954967 17.400665 9.6220665 7.3889556 30.09683
00000000: 3a2a c341 3a0b 7a40 af9b 8941 dd15 e641
00000010: b71f 4f41 b481 8d41 c870 9241 85f1 dc41
00000020: 8bd0 aa40 5550 a941 5a4d f041 89f1 7741
00000030: 38ef e941 4517 9841 829e b441 18a7 9140
00000040: 1120 cf40 e57c 9541 29e1 c240 c751 d141
00000050: c629 d440 e394 f341 78ff ee41 5cd7 f440
00000060: 499c da40 7bfa 3241 30e3 fc41 6be9 7240
00000070: 9034 8b41 fcf3 1941 5372 ec40 4fc6 f041

sequential/batch_normalization/FusedBatchNormV31 f4 [32]
-0.42228872 -0.5831802 -0.2882679 -0.08966729 -0.46373802 -0.6257003 -0.86889815 -0.4259972
-0.4882013 -0.6456489 -0.052167922 -0.5341091 -0.074400365 -0.23223376 -0.48274255 -0.65896153
-0.7911325 -0.18835168 -0.5434136 -0.18107131 -0.39532644 -0.060340457 0.029042082 -0.45922378
-0.6488653 -0.3402758 0.043492354 -0.5447476 -0.39693546 -0.9304361 -0.54612166 -0.07725707
00000000: 3a36 d8be 4c4b 15bf da97 93be 7ca3 b7bd
00000010: 126f edbe e52d 20bf 1c70 5ebf 4e1c dabe
00000020: 85f5 f9be 3f49 25bf 08ae 55bd 60bb 08bf
00000030: 385f 98bd b0ce 6dbe 082a f7be b4b1 28bf
00000040: a987 4abf 43df 40be 271d 0bbf c26a 39be
00000050: 3a68 cabe 8e27 77bd a9e9 ed3c 611f ebbe
00000060: 091c 26bf a138 aebe 0a25 323d 9474 0bbf
00000070: 203b cbbe 0f31 6ebf a1ce 0bbf f438 9ebd

sequential/batch_normalization_1/FusedBatchNormV3 f4 [64]
2.312585 1.4971576 1.9463329 1.562284 2.0062492 1.0978355 1.0176764 1.3718566
2.0083818 2.6486049 0.9851406 1.7690002 1.4878325 1.5812895 1.3841982 1.2266814
1.942716 2.011725 2.1410205 0.7361221 2.32877 0.7874748 1.5408725 1.3949814
0.7327162 1.5187026 2.9366841 1.0957564 2.3567555 1.9608098 1.2627373 1.1473862
1.5834008 1.1677643 2.068137 1.9297618 1.2183318 1.5483224 2.5589538 2.3232422
2.2997756 2.412426 1.1502401 1.6237627 1.401646 1.6488637 0.6702228 1.7217253
2.0341928 1.815038 1.1174314 1.0988065 1.9762081 1.567938 1.303189 1.1481228
0.77891254 1.2080489 1.8405821 2.0210812 0.6575966 1.32326 1.9431331 1.944716
00000000: 6501 1440 dca2 bf3f 7021 f93f ecf8 c73f
00000010: 6366 0040 e085 8c3f 3843 823f ff98 af3f
00000020: 5489 0040 be82 2940 2d32 7c3f 996e e23f
00000030: 4c71 be3f b267 ca3f 682d b13f e503 9d3f
00000040: ebaa f83f 1ac0 0040 7b06 0940 7f72 3c3f
00000050: 910a 1540 f397 493f 4f3b c53f c08e b23f
00000060: 4a93 3b3f d964 c23f a2f2 3b40 bf41 8c3f
00000070: 15d5 1640 d1fb fa3f 60a1 a13f 8ddd 923f
00000080: e1ac ca3f 4d79 953f 5b5c 0440 6f02 f73f
00000090: 4cf2 9b3f 6e2f c63f e6c5 2340 00b0 1440
000000a0: 862f 1340 3065 1a40 113b 933f 75d7 cf3f
000000b0: 2369 b33f f70d d33f b993 2b3f 7f61 dc3f
000000c0: 3730 0240 2a53 e83f fe07 8f3f b1a5 8c3f
000000d0: 63f4 fc3f 31b2 c83f e6ce a63f b0f5 923f
000000e0: d066 473f 59a1 9a3f 3298 eb3f 6559 0140
000000f0: 4058 283f 9560 a93f 96b8 f83f 74ec f83f

sequential/batch_normalization_1/FusedBatchNormV31 f4 [64]
-0.69638294 -0.69381607 -0.7070153 -0.6509312 -0.5056287 -0.55998653 -0.44521973 -0.4956704
-0.62713 -0.46314847 -0.581816 -0.5484823 -0.75888675 -0.5600542 -0.41035104 -0.66563326
-0.5863684 -0.7155747 -0.53377837 -0.6769664 -0.598814 -0.55789775 -0.5115517 -0.6738038
-0.43840083 -0.703559 -0.6439603 -0.565196 -0.6009769 -0.6513926 -0.5689509 -0.59128416
-0.51807725 -0.5709543 -0.7588088 -0.8024847 -0.456129 -0.48532388 -0.6461706 -0.68305844
-0.4510868 -0.7385432 -0.67194295 -0.6342295 -0.59179837 -0.7217498 -0.62199557 -0.48695004
-0.5192559 -0.67903936 -0.51385856 -0.59925413 -0.6103235 -0.5486617 -0.54906064 -0.5430503
-0.55521345 -0.7399688 -0.6959419 -0.7830037 -0.66208684 -0.53576404 -0.38067433 -0.495979
00000000: 2746 32bf ee9d 31bf f4fe 34bf 6da3 26bf
00000010: e270 01bf 475b 0fbf d7f3 e3be 83c8 fdbe
00000020: 978b 20bf cc21 edbe e5f1 14bf 5669 0cbf
00000030: 6746 42bf b65f 0fbf 8819 d2be f166 2abf
00000040: 3d1c 16bf e72f 37bf b3a5 08bf ac4d 2dbf
00000050: e04b 19bf 63d2 0ebf 0df5 02bf 687e 2cbf
00000060: 1376 e0be 711c 34bf 95da 24bf afb0 10bf
00000070: 9fd9 19bf aac1 26bf c4a6 11bf 665e 17bf
00000080: b6a0 04bf 102a 12bf 4b41 42bf a36f 4dbf
00000090: be89 e9be 5f7c f8be 706b 25bf ebdc 2ebf
000000a0: d9f4 e6be 2b11 3dbf 7404 2cbf dd5c 22bf
000000b0: 1980 17bf 98c4 38bf 1a3b 1fbf 8451 f9be
000000c0: f4ed 04bf 86d5 2dbf 3c8c 03bf b868 19bf
000000d0: 293e 1cbf 1875 0cbf 3d8f 0cbf 5805 0bbf
000000e0: 7822 0ebf 986e 3dbf 4029 32bf ee72 48bf
000000f0: 867e 29bf d527 09bf bfe7 c2be f6f0 fdbe

sequential/batch_normalization_2/FusedBatchNormV3 f4 [64]
0.71673936 0.75583935 0.41538298 1.534027 0.5597553 0.6030103 0.5406847 0.5159168
0.5585558 0.5184564 0.5482037 1.8638155 0.6136349 0.50627494 0.7822325 0.61065286
0.79983485 0.8726095 0.6539957 0.65458894 0.85603464 0.44900203 0.63530844 0.42104167
0.73930955 0.4550473 0.46081457 0.9956846 0.4551448 1.3047394 0.5623129 0.555666
0.88456345 0.7399182 0.53823006 0.667364 0.5019888 0.7043132 0.68446326 0.8858998
0.8341014 0.65174943 0.5668823 0.8220939 0.69776547 0.5147298 0.4615904 0.60008717
1.0012783 1.1200361 0.79894954 0.33899808 0.4994716 0.6991054 1.0821074 0.6534395
0.7136607 0.51758194 0.5836828 0.780357 0.5418062 0.90854603 1.1129864 0.4189067
00000000: 3b7c 373f b07e 413f 14ad d43e ff5a c43f
00000010: 204c 0f3f e25e 1a3f 506a 0a3f 2013 043f
00000020: 83fd 0e3f 8fb9 043f 1457 0c3f 8291 ee3f
00000030: 2d17 1d3f 3c9b 013f 6440 483f bf53 1c3f
00000040: fac1 4c3f 5663 5f3f 436c 273f 2493 273f
00000050: 1625 5b3f 98e3 e53e 93a3 223f c692 d73e
00000060: 6443 3d3f f6fb e83e e3ef eb3e 30e5 7e3f
00000070: bd08 e93e b301 a73f bdf3 0f3f 2140 0e3f
00000080: c072 623f 476b 3d3f 72c9 093f 5ed8 2a3f
00000090: 5782 003f df4d 343f fc38 2f3f 54ca 623f
000000a0: ab87 553f 0dd9 263f 331f 113f bf74 523f
000000b0: c2a0 323f 55c5 033f 9455 ec3e 509f 193f
000000c0: e329 803f 585d 8f3f f587 4c3f 2891 ad3e
000000d0: beba ff3e 92f8 323f 7f82 8a3f d047 273f
000000e0: 78b2 363f 4080 043f 3c6c 153f 7ac5 473f
000000f0: d0b3 0a3f 7996 683f 5776 8e3f f07a d63e

sequential/batch_normalization_2/FusedBatchNormV31 f4 [64]
-0.5454699 -0.56352824 -0.92144287 -0.22267714 -0.7698612 -0.7362506 -0.59746337 -0.86427504
-0.7055893 -0.68746483 -0.73152894 -0.20756173 -0.8206155 -0.75683314 -0.547742 -0.600943
-0.4000937 -0.5628097 -0.77592796 -0.7553878 -0.4648676 -0.97382325 -0.8044157 -1.05919
-0.58664006 -1.2121899 -1.0225475 -0.35634044 -0.7710963 -0.4677197 -0.8801071 -0.7637134
-0.45972717 -0.5214679 -0.9364718 -0.54875875 -0.86807716 -0.45115668 -0.5593526 -0.519643
-0.50863016 -0.61143893 -0.74310064 -0.6341101 -0.4551462 -0.9600992 -0.7348893 -0.65104526
-0.4593451 -0.4700156 -0.55682033 -0.92041373 -0.97694576 -0.5778198 -0.4549445 -0.7379351
-0.55174226 -0.8170552 -0.5420288 -0.49388984 -0.78886575 -0.5832934 -0.3995676 -0.9439218
00000000: eaa3 0bbf 6343 10bf aee3 6bbf 7a05 64be
00000010: a015 45bf eb7a 3cbf 5cf3 18bf 2141 5dbf
00000020: 80a1 34bf b2fd 2fbf 7b45 3bbf 108b 54be
00000030: db13 52bf d1bf 41bf d238 0cbf 67d7 19bf
00000040: 15d9 ccbe 4c14 10bf 37a3 46bf 1861 41bf
00000050: 2003 eebe 7b4c 79bf 30ee 4dbf 8a93 87bf
00000060: 0b2e 16bf 0a29 9bbf d6e2 82bf 4172 b6be
00000070: 9166 45bf f578 efbe b34e 61bf b982 43bf
00000080: 5c61 ebbe ec7e 05bf 9ebc 6fbf 747b 0cbf
00000090: 4e3a 5ebf 02fe e6be bb31 0fbf 5307 05bf
000000a0: 9635 02bf 4387 1cbf d83b 3ebf 0a55 22bf
000000b0: ec08 e9be 10c9 75bf b521 3cbf e7aa 26bf
000000c0: 482f ebbe e2a5 f0be c78b 0ebf 3ca0 6bbf
000000d0: 1e19 7abf 00ec 13bf 7cee e8be 51e9 3cbf
000000e0: fb3e 0dbf 882a 51bf 66c2 0abf 21df fcbe
000000f0: 1bf3 49bf b752 15bf 2094 ccbe dca4 71bf

sequential/dense/MatMul f4 [64, 1024]
0.040268883 -0.008356197 -0.08226309 -0.040834453 -0.010975741 -0.06956969 0.029846298 0.02496964
-0.07195254 0.058379505 -0.07118608 -0.035687935 -0.046985894 -0.0095733525 -0.056619305 0.03960508
0.080568604 0.047015183 -0.10606567 -0.09583408 -0.037049502 -0.039421413 0.0032502038 -0.016948225
0.0018617184 -0.10014589 0.060854625 -0.017406378 -0.022892477 -0.04071458 0.04066755 -0.023707755
-0.008309501 -0.020710377 0.021296958 -0.045452815 0.082908824 -0.03639617 0.057168756 -0.05328272
-0.058409676 0.07467523 0.086654514 0.037865322 -0.082940385 -0.07013481 0.088060364 -0.07974359
0.06725376 0.03716061 -0.06820814 0.045490578 -0.0402904 -0.052794125 -0.012080637 0.029822974
-0.09719581 -0.033772927 0.009264809 -0.012348185 -0.023184463 -0.03932298 0.03808054 0.033703662
0.02153018 0.0076028863 -0.059980437 -0.031422637 -0.06939106 0.04106419 0.046952646 0.06321077
0.0162755 0.0065240827 0.01749339 -0.09640921 -0.019880025 0.060410164 -0.026760437 -0.019308161
-0.06552494 0.061229676 -0.09666853 -0.018821845 -0.04088802 0.040408313 0.07982231 -0.04329347
-0.084508546 0.01202261 -0.06717355 -0.050930027 0.009014755 -0.06701623 -0.003031519 -0.064885594
-0.026212296 0.06678494 -0.02396028 0.028245231 0.055657163 -0.036828235 0.018711623 0.011661224
-0.065949015 -0.11243109 0.053092934 -0.03392154 0.001609959 0.036578648 0.03226058 0.0014552295
0.034881152 -0.026603958 -0.040741052 0.08148056 0.035365503 -0.014810742 -0.040647283 0.0043442138
-0.024698043 0.10987298 0.039954264 0.031876422 -0.019355869 0.06456078 0.109562874 0.012584885
-0.007721819 0.031423885 -0.0011525038 0.06524667 -0.06650625 -0.0072833057 -0.05201172 0.093419075
0.06206781 -0.0020804799 -0.009618098 -0.014384191 0.02583931 0.04779228 -0.01464123 0.075566486
-0.023963941 -0.039437216 0.008316931 -0.08739877 -0.026861766 -0.06294924 -0.05563821 0.0032251633
-0.08803239 0.03216586 -0.016077625 0.09317245 -0.009768682 -0.03593349 0.059513938 0.057057165
-0.004602537 0.0010598728 -0.07468191 -0.015313715 0.011243815 0.04886809 0.042978562 -0.01761213
-0.016514206 -0.059998136 0.021968462 -0.009322872 0.01774808 0.024747103 0.061665885 -0.06907808
0.050435677 0.04602008 0.01291552 -0.008349875 0.004810595 0.03409262 -0.0056400085 0.011296138
-0.1303158 0.052756563 -0.0614056 0.0739395 -0.023802971 -0.006175142 -0.05112919 0.015666164
-0.02731237 0.10225688 0.050116543 0.0681304 0.031043846 -0.023039537 0.0116321575 0.019694747
0.043858472 -0.006311582 0.05894861 0.08038797 0.06315459 0.04265253 0.042853758 0.08139831
-0.0050923945 0.0889236 0.05828997 -0.079150796 -0.0013341092 0.008775642 0.0855797 0.031325523
-0.036300305 0.088617705 0.074003495 0.06251747 0.04117897 -0.06978354 -0.010211006 0.029307915
0.05829588 -0.06791992 -0.07495929 -0.014512592 -0.0047437684 0.008422968 0.10148051 0.0042832457
-0.061745908 0.036201764 -0.043658964 0.08569721 -0.007438041 -0.029422948 0.0015956599 -0.03206566
0.07376443 0.021358287 0.01873999 -0.00020828782 0.06568996 -0.013411791 -0.045691095 -0.021124078
0.05321051 -0.033399027 -0.0091443 0.0053158225 -0.026476989 0.031240733 -0.07919147 -0.0036160632
00000000: fcf0 243d 6ee8 08bc 8d79 a8bd 0742 27bd
00000010: 98d3 33bc 8e7a 8ebd 3980 f43c 218d cc3c
00000020: da5b 93bd 591f 6f3d 02ca 91bd 832d 12bd
00000030: 4874 40bd 8dd9 1cbc a5e9 67bd f038 223d
00000040: 2701 a53d fe92 403d f538 d9bd a844 c4bd
00000050: 38c1 17bd 5978 21bd 5f01 553b 01d7 8abc
00000060: e704 f43a 4a19 cdbd b342 793d d297 8ebc
00000070: 0189 bbbc 55c4 26bd 0493 263d c436 c2bc
00000080: 9324 08bc cfa8 a9bc f576 ae3c bb2c 3abd
00000090: 1acc a93d 2614 15bd c929 6a3d fb3e 5abd
000000a0: fc3e 6fbd 54ef 983d ec77 b13d ab18 1b3d
000000b0: a6dc a9bd d7a2 8fbd fe58 b43d 9b50 a3bd
000000c0: 57bc 893d b935 183d b6b0 8bbd 5454 3a3d
000000d0: 8c07 25bd a73e 58bd dded 45bc 4f4f f43c
000000e0: 990e c7bd 7b55 0abd 6dcb 173c 0b50 4abc
000000f0: 58ed bdbc 2211 21bd 57fa 1b3d da0c 0a3d
00000100: 0f60 b03c a221 f93b 0cae 75bd 06b5 00bd
00000110: e61c 8ebd ed32 283d 6b51 403d a674 813d
00000120: 3354 853c f9c7 d53b 4c4e 8f3c 3172 c5bd
00000130: 6fdb a2bc a670 773d b438 dbbc 262c 9ebc
00000140: f131 86bd f8cb 7a3d 26fa c5bd 4530 9abc
00000150: 327a 27bd 3083 253d e179 a33d 7e54 31bd
00000160: d112 adbd 7bfa 443c 4992 89bd 019c 50bd
00000170: 9fb2 133c ce3f 89bd 73ac 46bb bde2 84bd
00000180: 2bbb d6bc 8bc6 883d 5948 c4bc 8b62 e73c
00000190: c4f8 633d 34d9 16bd 1e49 993c b80e 3f3c
000001a0: 4710 87bd 4542 e6bd fa77 593d 50f1 0abd
000001b0: 4305 d33a 7ed3 153d ac23 043d 66bd be3a
000001c0: 8adf 0e3d 8bf0 d9bc 17e0 26bd 48df a63d
000001d0: 6bdb 103d c1a8 72bc c47d 26bd e859 8e3b
000001e0: 8d53 cabc 1605 e13d 15a7 233d da90 023d
000001f0: 3390 9ebc 7138 843d 8062 e03d d530 4e3c
00000200: 5007 fdbb 55b6 003d 9c0f 97ba 0ca0 853d
00000210: 6e34 88bd cca8 eebb 3e0a 55bd 8052 bf3d
00000220: d13a 7e3d a958 08bb 3a95 1dbc abab 6bbc
00000230: f6ac d33c d6c1 433d c5e1 6fbc 9ac2 9a3d
00000240: 0750 c4bc eb88 21bd bd43 083c 20fe b2bd
00000250: 350d dcbc 88eb 80bd e4e4 63bd 435d 533b
00000260: 534a b4bd 59c0 033d 39b5 83bc 33d1 be3d
00000270: d20c 20bc ff2e 13bd e3c4 733d c6b4 693d
00000280: e1d0 96bb 6eeb 8a3a d4f2 98bd 60e6 7abc
00000290: fa37 383c e829 483d 4a0a 303d 5047 90bc
000002a0: cd48 87bc 9bc0 75bd 34f7 b33c f6be 18bc
000002b0: 6c64 913c 70ba ca3c 5e95 7c3d cf78 8dbd
000002c0: a495 4e3d 8d7f 3c3d 9e9b 533c eacd 08bc
000002d0: 32a2 9d3b b4a4 0b3d d2cf b8bb 7013 393c
000002e0: 8171 05be 4417 583d 7084 7bbd 986d 973d
000002f0: 73fe c2bc d858 cabb d76c 51bd 5456 803c
00000300: 31be dfbc 0e6c d13d 0147 4d3d f387 8b3d
00000310: aa4f fe3c 69bd bcbc ce94 3e3c e156 a13c
00000320: f1a4 333d 63d1 cebb 1974 713d 73a2 a43d
00000330: 3257 813d 6bb4 2e3d 6c87 2f3d 28b4 a63d
00000340: 1ade a6bb 941d b63d 77c1 6e3d d019 a2bd
00000350: 47dd aeba b6c7 0f3c 6944 af3d 314f 003d
00000360: a1af 14bd 337d b53d 258f 973d 2909 803d
00000370: 48ab 283d acea 8ebd 104c 27bc 2717 f03c
00000380: a9c7 6e3d 9919 8bbd 4284 99bd 39c6 6dbc
00000390: 9d71 9bbb 7d00 0a3c 03d5 cf3d 785a 8c3b
000003a0: 47e9 7cbd 4d48 143d bed3 32bd 0582 af3d
000003b0: cfba f3bb 6508 f1bc 7625 d13a 4857 03bd
000003c0: ce11 973d 93f7 ae3c 9c84 993c d667 5ab9
000003d0: 7588 863d 21bd 5bbc 9626 3bbd 670c adbc
000003e0: 44f3 593d 6bcd 08bd f9d1 15bc 5a30 ae3b
000003f0: 45e6 d8bc 91ec ff3c 232f a2bd 79fb 6cbb
